MultiEnvParallel
env_name		   =  basic.wad
envs_count      =  128
threads_count   =  16




model_ppo
Sequential(
  (0): Conv2d(3, 16, kernel_size=(3, 3), stride=(2, 2), padding=(1, 1))
  (1): ReLU()
  (2): Conv2d(16, 32, kernel_size=(3, 3), stride=(2, 2), padding=(1, 1))
  (3): ReLU()
  (4): Conv2d(32, 64, kernel_size=(3, 3), stride=(2, 2), padding=(1, 1))
  (5): ReLU()
  (6): Conv2d(64, 64, kernel_size=(3, 3), stride=(1, 1), padding=(1, 1))
  (7): ReLU()
  (8): Flatten(start_dim=1, end_dim=-1)
  (9): Linear(in_features=8192, out_features=512, bias=True)
)
GRUCell(512, 256)
ModelFC(
  (act0): ReLU()
  (lin0): Linear(in_features=768, out_features=512, bias=True)
  (act1): ReLU()
  (lin1): Linear(in_features=512, out_features=12, bias=True)
)
ModelCritic(
  (act0): ReLU()
  (hidden): Linear(in_features=768, out_features=512, bias=True)
  (act1): ReLU()
  (value): Linear(in_features=512, out_features=1, bias=True)
)
ModelFC(
  (act0): ReLU()
  (lin0): Linear(in_features=512, out_features=512, bias=True)
  (act1): ReLU()
  (lin1): Linear(in_features=512, out_features=512, bias=True)
)



starting training
128 3 3 0.0 0.0 5.08 -0.0010162 0.0005496  {} 
256 3 3 0.0 0.0 4.88 -0.0001075 4.18e-05  {} 
384 3 3 0.0 0.0 4.79 -0.0010415 0.0006173  {} 
512 3 3 0.0 0.0 4.69 -0.0010151 0.0008964  {} 
640 3 3 0.0 0.0 4.46 -0.0010729 0.0007012  {} 
768 3 3 0.0 0.0 4.47 -0.0021599 0.0012354  {} 
896 3 3 0.0 0.0 4.53 -0.0009103 0.0005376  {} 
1024 3 3 0.0 0.0 4.48 9.23e-05 4.21e-05  {} 
…
