model_ppo
Sequential(
  (0): Conv2d(4, 32, kernel_size=(8, 8), stride=(4, 4), padding=(2, 2))
  (1): ReLU()
  (2): Conv2d(32, 64, kernel_size=(3, 3), stride=(2, 2), padding=(1, 1))
  (3): ReLU()
  (4): Conv2d(64, 64, kernel_size=(3, 3), stride=(2, 2), padding=(1, 1))
  (5): ReLU()
  (6): Conv2d(64, 128, kernel_size=(3, 3), stride=(1, 1), padding=(1, 1))
  (7): ReLU()
  (8): Flatten(start_dim=1, end_dim=-1)
)
Sequential(
  (0): Linear(in_features=4608, out_features=512, bias=True)
  (1): ReLU()
  (2): Linear(in_features=512, out_features=1, bias=True)
)
Sequential(
  (0): Linear(in_features=4608, out_features=512, bias=True)
  (1): ReLU()
  (2): Linear(in_features=512, out_features=1, bias=True)
)
Sequential(
  (0): Linear(in_features=4608, out_features=512, bias=True)
  (1): ReLU()
  (2): Linear(in_features=512, out_features=6, bias=True)
)



model_forward
Sequential(
  (0): Conv2d(4, 32, kernel_size=(8, 8), stride=(4, 4), padding=(2, 2))
  (1): ELU(alpha=1.0)
  (2): Conv2d(32, 64, kernel_size=(3, 3), stride=(2, 2), padding=(1, 1))
  (3): ELU(alpha=1.0)
  (4): Conv2d(64, 64, kernel_size=(3, 3), stride=(2, 2), padding=(1, 1))
  (5): ELU(alpha=1.0)
  (6): Flatten(start_dim=1, end_dim=-1)
  (7): Linear(in_features=2304, out_features=512, bias=True)
  (8): ELU(alpha=1.0)
  (9): Linear(in_features=512, out_features=512, bias=True)
  (10): ELU(alpha=1.0)
  (11): Linear(in_features=512, out_features=512, bias=True)
)



model_forward_target
Sequential(
  (0): Conv2d(4, 32, kernel_size=(8, 8), stride=(4, 4), padding=(2, 2))
  (1): ELU(alpha=1.0)
  (2): Conv2d(32, 64, kernel_size=(3, 3), stride=(2, 2), padding=(1, 1))
  (3): ELU(alpha=1.0)
  (4): Conv2d(64, 64, kernel_size=(3, 3), stride=(2, 2), padding=(1, 1))
  (5): ELU(alpha=1.0)
  (6): Flatten(start_dim=1, end_dim=-1)
  (7): Linear(in_features=2304, out_features=512, bias=True)
)



1000 2 7 9.9 0.9254372000000002 27.97 16.6428581 1.0 0.1236492 0.8024134 
2000 4 12 52.719 1.9475814122280002 21.39 12.4162031 1.0 -0.0514787 0.1946945 
3000 5 17 59.4471 2.243467348106512 21.28 9.8408474 1.0 -0.0292312 -0.0535423 
4000 8 24 81.00693589999999 1.740338577850566 21.59 8.5335846 1.0 0.1055596 -0.171624 
5000 9 29 80.40624231 2.0263825268349813 21.58 7.0621687 0.999291 0.0505806 0.0864276 
…
61000 90 269 281.792198872924 5.827144742884588 19.63 2.7127852 0.9775501 7.86e-05 0.0604101 
62000 92 274 282.60168108706847 5.688730699225921 19.96 2.5404296 0.9341684 -0.0604371 -0.0214511 
63000 93 277 292.3415129783616 5.383084679735696 20.11 2.5159039 0.9124612 0.0442416 0.1266328 
64000 94 278 315.60736168052546 6.944776211762127 20.06 2.3851119 0.9679998 0.0957992 0.1818662 
65000 95 282 330.04662551247293 6.921267672537132 19.81 2.2794687 0.9582094 0.1083416 0.4544141 
66000 97 287 343.0377666651031 6.567989347956452 19.83 2.2953156 0.9722675 0.0010045 0.2062912 model_ppo
Sequential(
  (0): Conv2d(4, 32, kernel_size=(8, 8), stride=(4, 4), padding=(2, 2))
  (1): ReLU()
  (2): Conv2d(32, 64, kernel_size=(3, 3), stride=(2, 2), padding=(1, 1))
  (3): ReLU()
  (4): Conv2d(64, 64, kernel_size=(3, 3), stride=(2, 2), padding=(1, 1))
  (5): ReLU()
  (6): Conv2d(64, 128, kernel_size=(3, 3), stride=(1, 1), padding=(1, 1))
  (7): ReLU()
  (8): Flatten(start_dim=1, end_dim=-1)
)
Sequential(
  (0): Linear(in_features=4608, out_features=512, bias=True)
  (1): ReLU()
  (2): Linear(in_features=512, out_features=1, bias=True)
)
Sequential(
  (0): Linear(in_features=4608, out_features=512, bias=True)
  (1): ReLU()
  (2): Linear(in_features=512, out_features=6, bias=True)
)



1000 1 5 11.0 0.6878000000000001 21.69 0.0458423 
2000 3 10 33.06 1.6099590220000004 21.02 0.0264764 
3000 5 17 55.878600000000006 1.4660787093496324 21.6 -0.0076774 
4000 6 20 65.79074 2.152771379115882 21.22 0.0083516 
5000 7 22 89.21166600000001 3.363744817083864 21.26 -0.0240735 
6000 9 27 134.86144946000002 3.0346676770398515 20.85 -0.0230747 
7000 10 32 147.37530451400002 3.0940609166152626 21.51 -0.0444707 
…
