MultiEnvParallel
env_name		   =  basic.wad
envs_count      =  128
threads_count   =  16




model_ppo
Sequential(
  (0): Conv2d(6, 16, kernel_size=(3, 3), stride=(2, 2), padding=(1, 1))
  (1): ReLU()
  (2): Conv2d(16, 32, kernel_size=(3, 3), stride=(2, 2), padding=(1, 1))
  (3): ReLU()
  (4): Conv2d(32, 64, kernel_size=(3, 3), stride=(2, 2), padding=(1, 1))
  (5): ReLU()
  (6): Conv2d(64, 64, kernel_size=(3, 3), stride=(1, 1), padding=(1, 1))
  (7): ReLU()
  (8): Flatten(start_dim=1, end_dim=-1)
  (9): Linear(in_features=8192, out_features=512, bias=True)
)
ModelFC(
  (act0): ReLU()
  (lin0): Linear(in_features=512, out_features=512, bias=True)
  (act1): ReLU()
  (lin1): Linear(in_features=512, out_features=12, bias=True)
)
ModelCritic(
  (act0): ReLU()
  (hidden): Linear(in_features=512, out_features=512, bias=True)
  (act1): ReLU()
  (value): Linear(in_features=512, out_features=1, bias=True)
)
ModelFC(
  (act0): ReLU()
  (lin0): Linear(in_features=512, out_features=512, bias=True)
  (act1): ReLU()
  (lin1): Linear(in_features=512, out_features=512, bias=True)
)



starting training
128 0 0 0.0 0.0 3.08 -0.0047523 0.0026175  {} 
256 0 0 0.0 0.0 4.9 -0.0037703 0.0021781  {} 
384 1 1 0.0 0.0 4.59 -0.0020627 0.0015082  {} 
512 1 1 0.0 0.0 4.7 -0.0026005 0.0020239  {} 
640 1 1 0.0 0.0 4.52 0.0001931 0.000154  {} 
768 1 1 0.0 0.0 4.47 -0.0007826 0.0005213  {} 
896 1 1 0.0 0.0 4.32 0.0001672 4.11e-05  {} 
1024 1 1 0.0 0.0 4.24 -0.001652 0.0010828  {} 
…
